…
_activation': False}}, 'marl_method': 'nash_ppo', 'marl_spec': {'min_update_interval': 20, 'score_avg_window': 10, 'global_state': True}, 'record_video_interval': 3000}
RoboSumo-Spider-vs-Spider-v0 robosumo
record video: interval 3000, length 300
Load RoboSumo-Spider-vs-Spider-v0 environment in type robosumo.
Env observation space: Box(-inf, inf, (208,), float32) action space: Box(-1.0, 1.0, (16,), float32)
random seed: 822
<RecordVideo<mars.env.wrappers.mars_wrappers.RoboSumoWrapper object at 0x7f1f61326f98>>
gaussian_policy 16 Box(-1.0, 1.0, (16,), float32)
[MLP(
  (body): Sequential(
    (0): Linear(in_features=208, out_features=128, bias=True)
    (1): ReLU()
    (2): Linear(in_features=128, out_features=128, bias=True)
    (3): ReLU()
    (4): Linear(in_features=128, out_features=208, bias=True)
  )
), MLP(
  (body): Sequential(
    (0): Linear(in_features=208, out_features=128, bias=True)
    (1): ReLU()
    (2): Linear(in_features=128, out_features=128, bias=True)
    (3): ReLU()
    (4): Linear(in_features=128, out_features=208, bias=True)
  )
)] [MLP(
  (body): Sequential(
    (0): Linear(in_features=208, out_features=128, bias=True)
    (1): Linear(in_features=128, out_features=32, bias=True)
    (2): Tanh()
  )
), MLP(
  (body): Sequential(
    (0): Linear(in_features=208, out_features=128, bias=True)
    (1): Linear(in_features=128, out_features=32, bias=True)
    (2): Tanh()
  )
)] [MLP(
  (body): Sequential(
    (0): Linear(in_features=208, out_features=128, bias=True)
    (1): ReLU()
    (2): Linear(in_features=128, out_features=1, bias=True)
  )
), MLP(
  (body): Sequential(
    (0): Linear(in_features=208, out_features=128, bias=True)
    (1): ReLU()
    (2): Linear(in_features=128, out_features=1, bias=True)
  )
)] MLP(
  (body): Sequential(
    (0): Linear(in_features=416, out_features=128, bias=True)
    (1): ReLU()
    (2): Linear(in_features=128, out_features=1, bias=True)
  )
)
gaussian_policy 16 Box(-1.0, 1.0, (16,), float32)
[MLP(
  (body): Sequential(
    (0): Linear(in_features=208, out_features=128, bias=True)
    (1): ReLU()
    (2): Linear(in_features=128, out_features=128, bias=True)
    (3): ReLU()
    (4): Linear(in_features=128, out_features=208, bias=True)
  )
), MLP(
  (body): Sequential(
    (0): Linear(in_features=208, out_features=128, bias=True)
    (1): ReLU()
    (2): Linear(in_features=128, out_features=128, bias=True)
    (3): ReLU()
    (4): Linear(in_features=128, out_features=208, bias=True)
  )
)] [MLP(
  (body): Sequential(
    (0): Linear(in_features=208, out_features=128, bias=True)
    (1): Linear(in_features=128, out_features=32, bias=True)
    (2): Tanh()
  )
), MLP(
  (body): Sequential(
    (0): Linear(in_features=208, out_features=128, bias=True)
    (1): Linear(in_features=128, out_features=32, bias=True)
    (2): Tanh()
  )
)] [MLP(
  (body): Sequential(
    (0): Linear(in_features=208, out_features=128, bias=True)
    (1): ReLU()
    (2): Linear(in_features=128, out_features=1, bias=True)
  )
), MLP(
  (body): Sequential(
    (0): Linear(in_features=208, out_features=128, bias=True)
    (1): ReLU()
    (2): Linear(in_features=128, out_features=1, bias=True)
  )
)] MLP(
  (body): Sequential(
    (0): Linear(in_features=416, out_features=128, bias=True)
    (1): ReLU()
    (2): Linear(in_features=128, out_features=1, bias=True)
  )
)
gaussian_policy 16 Box(-1.0, 1.0, (16,), float32)
Agents No. [1] (index starting from 0) are not learnable.
Arguments:  {'env_name': 'RoboSumo-Spider-vs-Spider-v0', 'env_type': 'robosumo', 'num_envs': 1, 'ram': True, 'seed': 'random', 'record_video': True, 'against_baseline': False, 'algorithm': 'NashPPO', 'algorithm_spec': {'episodic_update': True
…
