pygame 2.0.1 (SDL 2.0.14, Python 3.7.0)
Hello from the pygame community. https://www.pygame.org/contribute.html
pong_v2 pettingzoo
Load pong_v2 environment in type pettingzoo.
Env observation space: Box(0.0, 1.0, (128,), float32) action space: Discrete(6)
random seed: 992
<mars.env.wrappers.mars_wrappers.Dict2TupleWrapper object at 0x7fa569a43860>
DQNBase(
  (net): MLP(
    (body): Sequential(
      (0): Linear(in_features=128, out_features=128, bias=True)
      (1): ReLU()
      (2): Linear(in_features=128, out_features=128, bias=True)
      (3): ReLU()
      (4): Linear(in_features=128, out_features=128, bias=True)
      (5): ReLU()
      (6): Linear(in_features=128, out_features=128, bias=True)
      (7): ReLU()
      (8): Linear(in_features=128, out_features=6, bias=True)
    )
  )
)
DQNBase(
  (net): MLP(
    (body): Sequential(
      (0): Linear(in_features=128, out_features=128, bias=True)
      (1): ReLU()
      (2): Linear(in_features=128, out_features=128, bias=True)
      (3): ReLU()
      (4): Linear(in_features=128, out_features=128, bias=True)
      (5): ReLU()
      (6): Linear(in_features=128, out_features=128, bias=True)
      (7): ReLU()
      (8): Linear(in_features=128, out_features=6, bias=True)
    )
  )
)
Agents No. [0] (index starting from 0) are not learnable.
Load meta strategy:  [array([0.   , 0.483, 0.   , ..., 0.156, 0.034, 0.062]) array([0.   , 0.   , 0.035, ..., 0.   , 0.   , 0.134])]
Load checkpoints (policy family):  [list(['21', '475', '1257', '1323', '1533', '1720', '1874', '2156', '2243', '2444', '2515', '2584', '2680', '2759', '2866', '3107', '3294', '3470', '3833', '4293', '4486', '4554', '4937', '5027', '5164', '5338', '5872', '6388', '6677', '6968', '7310', '7470', '8000'])
…
