pygame 2.0.1 (SDL 2.0.14, Python 3.7.0)
Hello from the pygame community. https://www.pygame.org/contribute.html
pong_v2 pettingzoo
Load pong_v2 environment in type pettingzoo.
Env observation space: Box(0.0, 1.0, (128,), float32) action space: Discrete(6)
random seed: 577
<mars.env.wrappers.mars_wrappers.Dict2TupleWrapper object at 0x7efaf84d1438>
DQNBase(
  (net): MLP(
    (body): Sequential(
      (0): Linear(in_features=128, out_features=128, bias=True)
      (1): ReLU()
      (2): Linear(in_features=128, out_features=128, bias=True)
      (3): ReLU()
      (4): Linear(in_features=128, out_features=128, bias=True)
      (5): ReLU()
      (6): Linear(in_features=128, out_features=128, bias=True)
      (7): ReLU()
      (8): Linear(in_features=128, out_features=6, bias=True)
    )
  )
)
DQNBase(
  (net): MLP(
    (body): Sequential(
      (0): Linear(in_features=128, out_features=128, bias=True)
      (1): ReLU()
      (2): Linear(in_features=128, out_features=128, bias=True)
      (3): ReLU()
      (4): Linear(in_features=128, out_features=128, bias=True)
      (5): ReLU()
      (6): Linear(in_features=128, out_features=128, bias=True)
      (7): ReLU()
      (8): Linear(in_features=128, out_features=6, bias=True)
    )
  )
)
Agents No. [0] (index starting from 0) are not learnable.
Load meta strategy:  [[0.029 0.029 0.029 ... 0.029 0.029 0.029]
 [0.029 0.029 0.029 ... 0.029 0.029 0.029]]
Load checkpoints (policy family):  [['94' '639' '890' ... '6649' '7053' '7379']
 ['493' '666' '919' ... '6794' '7183' '7441']]
Arguments:  {'env_name': 'pong_v2', 'env_type': 'pe
…
