…
ffmpeg: /home/zihan/anaconda3/envs/x/lib/libncursesw.so.6: no version information available (required by /lib/x86_64-linux-gnu/libcaca.so.0)
ffmpeg: /home/zihan/anaconda3/envs/x/lib/libncursesw.so.6: no version information available (required by /lib/x86_64-linux-gnu/libcaca.so.0)
RoboSumo-Ant-vs-Ant-v0 robosumo
record video:  100000 100
Load RoboSumo-Ant-vs-Ant-v0 environment in type robosumo.
Env observation space: Box(-inf, inf, (120,), float32) action space: Box(-1.0, 1.0, (8,), float32)
random seed: 939
<RecordVideo<mars.env.wrappers.mars_wrappers.ZeroSumWrapper object at 0x7f5da13bfd10>>
gaussian_policy 8 Box(-1.0, 1.0, (8,), float32)
2
[MLP(
  (body): Sequential(
    (0): Linear(in_features=120, out_features=128, bias=True)
    (1): ReLU()
    (2): Linear(in_features=128, out_features=128, bias=True)
    (3): ReLU()
    (4): Linear(in_features=128, out_features=120, bias=True)
  )
), MLP(
  (body): Sequential(
    (0): Linear(in_features=120, out_features=128, bias=True)
    (1): ReLU()
    (2): Linear(in_features=128, out_features=128, bias=True)
    (3): ReLU()
    (4): Linear(in_features=128, out_features=120, bias=True)
  )
)] [MLP(
  (body): Sequential(
    (0): Linear(in_features=120, out_features=128, bias=True)
    (1): Linear(in_features=128, out_features=16, bias=True)
    (2): Tanh()
  )
), MLP(
  (body): Sequential(
    (0): Linear(in_features=120, out_features=128, bias=True)
    (1): Linear(in_features=128, out_features=16, bias=True)
    (2): Tanh()
  )
)] [MLP(
  (body): Sequential(
    (0): Linear(in_features=120, out_features=128, bias=True)
    (1): ReLU()
    (2): Linear(in_features=128, out_features=1, bias=True)
  )
), MLP(
  (body): Sequential(
    (0): Linear(in_features=120, out_features=128, bias=True)
    (1): ReLU()
    (2): Linear(in_features=128, out_features=1, bias=True)
  )
)] MLP(
  (body): Sequential(
    (0): Linear(in_features=240, out_features=128, bias=True)
    (1): ReLU()
    (2): Linear(in_features=128, out_features=1, bias=True)
  )
)
gaussian_policy 8 Box(-1.0, 1.0, (8,), float32)
gaussian_policy 8 Box(-1.0, 1.0, (8,), float32)
Agents No. [0] (index starting from 0) are not learnable.
Agent No. [0] loads model from:  ./data/model/202208031648/robosumo_RoboSumo-Ant-vs-Ant-v0_nash_ppo/8000_0
Arguments:  {'env_name': 'RoboSumo-Ant-vs-Ant-v0', 'env_type': 'robosumo', 'num_en
…
