…
 'value': {'hidden_dim_list': [128], 'hidden_activation': 'Tanh', 'output_activation': False}}, 'marl_method': 'nash_ppo', 'marl_spec': {'min_update_interval': 20, 'score_avg_window': 10, 'global_state': True}, 'record_video_interval': 2000}
RoboSumo-Ant-vs-Ant-v0 robosumo
record video: interval 2000, length 300
Load RoboSumo-Ant-vs-Ant-v0 environment in type robosumo.
Env observation space: Box(-inf, inf, (120,), float32) action space: Box(-1.0, 1.0, (8,), float32)
random seed: [220, 936, 419, 892, 802]
<SubprocVectorEnv instance>
Feature networks:  [MLP(
  (body): Sequential(
    (0): Linear(in_features=120, out_features=128, bias=True)
    (1): Tanh()
    (2): Linear(in_features=128, out_features=128, bias=True)
    (3): Tanh()
    (4): Linear(in_features=128, out_features=120, bias=True)
  )
), MLP(
  (body): Sequential(
    (0): Linear(in_features=120, out_features=128, bias=True)
    (1): Tanh()
    (2): Linear(in_features=128, out_features=128, bias=True)
    (3): Tanh()
    (4): Linear(in_features=128, out_features=120, bias=True)
  )
)] 
Policy networks:  [MLP(
  (body): Sequential(
    (0): Linear(in_features=120, out_features=128, bias=True)
    (1): Tanh()
    (2): Linear(in_features=128, out_features=16, bias=True)
  )
), MLP(
  (body): Sequential(
    (0): Linear(in_features=120, out_features=128, bias=True)
    (1): Tanh()
    (2): Linear(in_features=128, out_features=16, bias=True)
  )
)] 
Value networks:  [MLP(
  (body): Sequential(
    (0): Linear(in_features=120, out_features=128, bias=True)
    (1): Tanh()
    (2): Linear(in_features=128, out_features=1, bias=True)
  )
), MLP(
  (body): Sequential(
    (0): Linear(in_features=120, out_features=128, bias=True)
    (1): Tanh()
    (2): Linear(in_features=128, out_features=1, bias=True)
  )
)] 
Common layers:  MLP(
  (body): Sequential(
    (0): Linear(in_features=240, out_features=128, bias=True)
    (1): Tanh()
    (2): Linear(in_features=128, out_features=1, bias=True)
  )
)
Feature networks:  [MLP(
  (body): Sequential(
    (0): Linear(in_features=120, out_features=128, bias=True)
    (1): Tanh()
    (2): Linear(in_features=128, out_features=128, bias=True)
    (3): Tanh()
    (4): Linear(in_features=128, out_features=120, bias=True)
  )
), MLP(
  (body): Sequential(
    (0): Linear(in_features=120, out_features=128, bias=True)
    (1): Tanh()
    (2): Linear(in_features=128, out_features=128, bias=True)
    (3): Tanh()
    (4): Linear(in_features=128, out_features=120, bias=True)
  )
)] 
Policy networks:  [MLP(
  (body): Sequential(
    (0): Linear(in_features=120, out_features=128, bias=True)
    (1): Tanh()
    (2): Linear(in_features=128, out_features=16, bias=True)
  )
), MLP(
  (body): Sequential(
    (0): Linear(in_features=120, out_features=128, bias=True)
    (1): Tanh()
    (2): Linear(in_features=128, out_features=16, bias=True)
  )
)] 
Value networks:  [MLP(
  (body): Sequential(
    (0): Linear(in_features=120, out_features=128, bias=True)
    (1): Tanh()
    (2): Linear(in_features=128, out_features=1, bias=True)
  )
), MLP(
  (body): Sequential(
    (0): Linear(in_features=120, out_features=128, bias=True)
    (1): Tanh()
    (2): Linear(in_features=128, out_features=1, bias=True)
  )
)] 
Common layers:  MLP(
  (body): Sequential(
    (0): Linear(in_features=240, out_features=128, bias=True)
    (1): Tanh()
    (2): Linear(in_features=128, out_features=1, bias=True)
  )
)
Agents No. [1] (index starting from 0) are not learnable.
Arguments:  {'env_name': 'RoboSumo-Ant-vs-Ant-v0', 'env_type': 'robosumo', 'num_envs': 5, 'ram': True, 'seed': 'random', 'adversarial': False, 'record_video': True, 'against_baseline': False, 'algorithm': 'NashPPO', 'algorithm_spec': {'episodic_update': False, 'dueling': False, 'replay_b
…
