…
m_list': [128], 'hidden_activation': False, 'output_activation': 'Tanh'}, 'value': {'hidden_dim_list': [128], 'hidden_activation': 'ReLU', 'output_activation': False}}, 'marl_method': 'nash_ppo', 'marl_spec': {'min_update_interval': 20, 'score_avg_window': 10, 'global_state': True}}
Ant-v2 gym
record video: interval 1000, length 300
Load Ant-v2 environment in type gym.
Env observation space: Box(-inf, inf, (111,), float64) action space: Box(-1.0, 1.0, (8,), float32)
random seed: [217, 956, 535, 547, 611]
<SubprocVectorEnv instance>
Feature networks:  [MLP(
  (body): Sequential(
    (0): Linear(in_features=111, out_features=128, bias=True)
    (1): ReLU()
    (2): Linear(in_features=128, out_features=128, bias=True)
    (3): ReLU()
    (4): Linear(in_features=128, out_features=111, bias=True)
  )
), MLP(
  (body): Sequential(
    (0): Linear(in_features=111, out_features=128, bias=True)
    (1): ReLU()
    (2): Linear(in_features=128, out_features=128, bias=True)
    (3): ReLU()
    (4): Linear(in_features=128, out_features=111, bias=True)
  )
)] 
Policy networks:  [MLP(
  (body): Sequential(
    (0): Linear(in_features=111, out_features=128, bias=True)
    (1): Linear(in_features=128, out_features=16, bias=True)
    (2): Tanh()
  )
), MLP(
  (body): Sequential(
    (0): Linear(in_features=111, out_features=128, bias=True)
    (1): Linear(in_features=128, out_features=16, bias=True)
    (2): Tanh()
  )
)] 
Value networks:  [MLP(
  (body): Sequential(
    (0): Linear(in_features=111, out_features=128, bias=True)
    (1): ReLU()
    (2): Linear(in_features=128, out_features=1, bias=True)
  )
), MLP(
  (body): Sequential(
    (0): Linear(in_features=111, out_features=128, bias=True)
    (1): ReLU()
    (2): Linear(in_features=128, out_features=1, bias=True)
  )
)] 
Common layers:  MLP(
  (body): Sequential(
    (0): Linear(in_features=222, out_features=128, bias=True)
    (1): ReLU()
    (2): Linear(in_features=128, out_features=1, bias=True)
  )
)
Feature networks:  [MLP(
  (body): Sequential(
    (0): Linear(in_features=111, out_features=128, bias=True)
    (1): ReLU()
    (2): Linear(in_features=128, out_features=128, bias=True)
    (3): ReLU()
    (4): Linear(in_features=128, out_features=111, bias=True)
  )
), MLP(
  (body): Sequential(
    (0): Linear(in_features=111, out_features=128, bias=True)
    (1): ReLU()
    (2): Linear(in_features=128, out_features=128, bias=True)
    (3): ReLU()
    (4): Linear(in_features=128, out_features=111, bias=True)
  )
)] 
Policy networks:  [MLP(
  (body): Sequential(
    (0): Linear(in_features=111, out_features=128, bias=True)
    (1): Linear(in_features=128, out_features=16, bias=True)
    (2): Tanh()
  )
), MLP(
  (body): Sequential(
    (0): Linear(in_features=111, out_features=128, bias=True)
    (1): Linear(in_features=128, out_features=16, bias=True)
    (2): Tanh()
  )
)] 
Value networks:  [MLP(
  (body): Sequential(
    (0): Linear(in_features=111, out_features=128, bias=True)
    (1): ReLU()
    (2): Linear(in_features=128, out_features=1, bias=True)
  )
), MLP(
  (body): Sequential(
    (0): Linear(in_features=111, out_features=128, bias=True)
    (1): ReLU()
    (2): Linear(in_features=128, out_features=1, bias=True)
  )
)] 
Common layers:  MLP(
  (body): Sequential(
    (0): Linear(in_features=222, out_features=128, bias=True)
    (1): ReLU()
    (2): Linear(in_features=128, out_features=1, bias=True)
  )
)
Agents No. [1] (index starting from 0) are not learnable.
Arguments:  {'env_name': 'Ant-v2', 'env_type': 'gym', 'num_envs': 5, 'ram': True, 'seed': 'random', 'adversarial': True, 'record_video': False, 'against_baseline': False, 'algorithm': 'NashPPO', 'algorithm_spec': {'episodic_update': False, 'dueling': False, 'replay_buffer_size': '1e5', '
…
[64, 64], 'hidden_activation': 'Tanh', 'output_activation': False}, 'value': {'hidden_dim_list': [64, 64, 64], 'hidden_activation': 'Tanh', 'output_activation': False}}, 'marl_method': False, 'marl_spec': {'min_update_interval': 20, 'score_avg_window': 10, 'global_state': False}}
Ant-v2 gym
record video: interval 1000, length 300
Load Ant-v2 environment in type gym.
Env observation space: Box(-inf, inf, (111,), float64) action space: Box(-1.0, 1.0, (8,), float32)
<mars.env.wrappers.mars_wrappers.Gym2AgentWrapper object at 0x7f2c21276d50>
Feature net: 
MLP(
  (body): Sequential(
    (0): Linear(in_features=111, out_features=64, bias=True)
    (1): Tanh()
    (2): Linear(in_features=64, out_features=64, bias=True)
    (3): Tanh()
    (4): Linear(in_features=64, out_features=64, bias=True)
  )
)
Value net: 
MLP(
  (body): Sequential(
    (0): Linear(in_features=64, out_features=64, bias=True)
    (1): Tanh()
    (2): Linear(in_features=64, out_features=64, bias=True)
    (3): Tanh()
    (4): Linear(in_features=64, out_features=64, bias=True)
    (5): Tanh()
    (6): Linear(in_features=64, out_features=1, bias=True)
  )
)
Policy net: 
MLP(
  (body): Sequential(
    (0): Linear(in_features=64, out_features=64, bias=True)
    (1): Tanh()
    (2): Linear(in_features=64, out_features=64, bias=True)
    (3): Tanh()
    (4): Linear(in_features=64, out_features=8, bias=True)
  )
)

Policy std net: 
MLP(
  (body): Sequential(
    (0): Linear(in_features=64, out_features=64, bias=True)
    (1): Tanh()
    (2): Linear(in_features=64, out_features=64, bias=True)
    (3): Tanh()
    (4): Linear(in_features=64, out_features=8, bias=True)
  )
)

No agent are not learnable.
Arguments:  {'env_name': 'Ant-v2', 'env_type': 'gym', 'num_envs': 1, 'ram': True, 'seed': 1122, 'adversarial': False, 'record_video': False, 'algorithm': 'PPO', 'algorithm_spec': {'episodic_update': False, 'dueling': False, 'replay_buffer_size': '1e5', 'gamma': 0.99, 'multi_step': 1, 'target_update_interval': 1000, 
…
