…
  File "/home/zihan/research/MARS/general_exploit.py", line 2, in <module>
    from mars.env.import_env import make_env
  File "/home/zihan/research/MARS/mars/env/import_env.py", line 31, in <module>
    import gym
ModuleNotFoundError: No module named 'gym'
pygame 2.0.1 (SDL 2.0.14, Python 3.7.0)
Hello from the pygame community. https://www.pygame.org/contribute.html
tennis_v2 pettingzoo
Load tennis_v2 environment in type pettingzoo.
Env observation space: Box(0.0, 1.0, (128,), float32) action space: Discrete(18)
random seed: 478
<mars.env.wrappers.mars_wrappers.Dict2TupleWrapper object at 0x7f3b3461e4a8>
DQNBase(
  (net): MLP(
    (body): Sequential(
      (0): Linear(in_features=128, out_features=128, bias=True)
      (1): ReLU()
      (2): Linear(in_features=128, out_features=128, bias=True)
      (3): ReLU()
      (4): Linear(in_features=128, out_features=128, bias=True)
      (5): ReLU()
      (6): Linear(in_features=128, out_features=128, bias=True)
      (7): ReLU()
      (8): Linear(in_features=128, out_features=18, bias=True)
    )
  )
)
DQNBase(
  (net): MLP(
    (body): Sequential(
      (0): Linear(in_features=128, out_features=128, bias=True)
      (1): ReLU()
      (2): Linear(in_features=128, out_features=128, bias=True)
      (3): ReLU()
      (4): Linear(in_features=128, out_features=128, bias=True)
      (5): ReLU()
      (6): Linear(in_features=128, out_features=128, bias=True)
      (7): ReLU()
      (8): Linear(in_features=128, out_features=18, bias=True)
    )
  )
)
Agents No. [0] (index starting from 0) are not learnable.
Agent No. [0] loads model from:  ./data/model/20220421_1855/pettingzoo_tennis_v2_nash_dqn_exploiter/1_0
Arguments:  {'env_name': 'tennis_v2', 'env_type': 'pettingzoo', 'num_envs': 1, 'ram': True, 'seed': 'random', 'algorithm': 'NashDQNExploiter', 'algorithm_spec': {'episodic_update': 
…
