…
': {'hidden_dim_list': [128], 'hidden_activation': 'ReLU', 'output_activation': False}}, 'marl_method': 'nash_ppo', 'marl_spec': {'min_update_interval': 20, 'score_avg_window': 10, 'global_state': True}, 'record_video_interval': 1000}
SlimeVolley-v0 slimevolley
record video: interval 1000, length 300
Load SlimeVolley-v0 environment in type slimevolley.
Env observation space: Box(-3.4028235e+38, 3.4028235e+38, (12,), float32) action space: Discrete(6)
random seed: [718, 96, 205, 367, 398]
<RecordVideo<SubprocVectorEnv instance>>
discrete_policy 6 Discrete(6)
2
[MLP(
  (body): Sequential(
    (0): Linear(in_features=12, out_features=128, bias=True)
    (1): ReLU()
    (2): Linear(in_features=128, out_features=128, bias=True)
    (3): ReLU()
    (4): Linear(in_features=128, out_features=12, bias=True)
  )
), MLP(
  (body): Sequential(
    (0): Linear(in_features=12, out_features=128, bias=True)
    (1): ReLU()
    (2): Linear(in_features=128, out_features=128, bias=True)
    (3): ReLU()
    (4): Linear(in_features=128, out_features=12, bias=True)
  )
)] [MLP(
  (body): Sequential(
    (0): Linear(in_features=12, out_features=128, bias=True)
    (1): Linear(in_features=128, out_features=6, bias=True)
    (2): Softmax(dim=-1)
  )
), MLP(
  (body): Sequential(
    (0): Linear(in_features=12, out_features=128, bias=True)
    (1): Linear(in_features=128, out_features=6, bias=True)
    (2): Softmax(dim=-1)
  )
)] [MLP(
  (body): Sequential(
    (0): Linear(in_features=12, out_features=128, bias=True)
    (1): ReLU()
    (2): Linear(in_features=128, out_features=1, bias=True)
  )
), MLP(
  (body): Sequential(
    (0): Linear(in_features=12, out_features=128, bias=True)
    (1): ReLU()
    (2): Linear(in_features=128, out_features=1, bias=True)
  )
)] MLP(
  (body): Sequential(
    (0): Linear(in_features=24, out_features=128, bias=True)
    (1): ReLU()
    (2): Linear(in_features=128, out_features=1, bias=True)
  )
)
discrete_policy 6 Discrete(6)
2
[MLP(
  (body): Sequential(
    (0): Linear(in_features=12, out_features=128, bias=True)
    (1): ReLU()
    (2): Linear(in_features=128, out_features=128, bias=True)
    (3): ReLU()
    (4): Linear(in_features=128, out_features=12, bias=True)
  )
), MLP(
  (body): Sequential(
    (0): Linear(in_features=12, out_features=128, bias=True)
    (1): ReLU()
    (2): Linear(in_features=128, out_features=128, bias=True)
    (3): ReLU()
    (4): Linear(in_features=128, out_features=12, bias=True)
  )
)] [MLP(
  (body): Sequential(
    (0): Linear(in_features=12, out_features=128, bias=True)
    (1): Linear(in_features=128, out_features=6, bias=True)
    (2): Softmax(dim=-1)
  )
), MLP(
  (body): Sequential(
    (0): Linear(in_features=12, out_features=128, bias=True)
    (1): Linear(in_features=128, out_features=6, bias=True)
    (2): Softmax(dim=-1)
  )
)] [MLP(
  (body): Sequential(
    (0): Linear(in_features=12, out_features=128, bias=True)
    (1): ReLU()
    (2): Linear(in_features=128, out_features=1, bias=True)
  )
), MLP(
  (body): Sequential(
    (0): Linear(in_features=12, out_features=128, bias=True)
    (1): ReLU()
    (2): Linear(in_features=128, out_features=1, bias=True)
  )
)] MLP(
  (body): Sequential(
    (0): Linear(in_features=24, out_features=128, bias=True)
    (1): ReLU()
    (2): Linear(in_features=128, out_features=1, bias=True)
  )
)
discrete_policy 6 Discrete(6)
Agents No. [1] (index starting from 0) are not learnable.
Arguments:  {'env_name': 'SlimeVolley-v0', 'env_type': 'slimevolley', 'num_envs': 5, 'ram': True, 'seed': 'random', 'record_video': True, 'against_baseline': False, 'algorithm': 'NashPPO', 'algorithm_spec': {'episodic_update': True, 'dueling': False, 'replay_buf
…
