…
record video: interval 100000, length 300
Load pong_v3 environment in type pettingzoo.
Env observation space: <bound method aec_to_parallel_wrapper.observation_space of <pettingzoo.utils.conversions.aec_to_parallel_wrapper object at 0x7f550134b2e8>> action space: <bound method aec_to_parallel_wrapper.action_space of <pettingzoo.utils.conversions.aec_to_parallel_wrapper object at 0x7f550134b2e8>>
random seed: [380, 341, 786, 120, 108]
<mars.env.wrappers.mars_wrappers.SSVecWrapper object at 0x7f5501355908>
discrete_policy 6 Discrete(6)
NashDQNBase(
  (net): CNN(
    (features): Sequential(
      (0): Conv2d(4, 32, kernel_size=(8, 8), stride=(4, 4))
      (1): ReLU()
      (2): Conv2d(32, 64, kernel_size=(4, 4), stride=(2, 2))
      (3): ReLU()
      (4): Conv2d(64, 64, kernel_size=(3, 3), stride=(1, 1))
      (5): ReLU()
    )
    (body): Sequential(
      (0): Flatten()
      (1): Linear(in_features=3136, out_features=512, bias=True)
      (2): ReLU()
      (3): Linear(in_features=512, out_features=512, bias=True)
      (4): ReLU()
      (5): Linear(in_features=512, out_features=36, bias=True)
      (6): Softmax(dim=-1)
    )
  )
)
discrete_policy 6 Discrete(6)
NashDQNBase(
  (net): CNN(
    (features): Sequential(
      (0): Conv2d(4, 32, kernel_size=(8, 8), stride=(4, 4))
      (1): ReLU()
      (2): Conv2d(32, 64, kernel_size=(4, 4), stride=(2, 2))
      (3): ReLU()
      (4): Conv2d(64, 64, kernel_size=(3, 3), stride=(1, 1))
      (5): ReLU()
    )
    (body): Sequential(
      (0): Flatten()
      (1): Linear(in_features=3136, out_features=512, bias=True)
      (2): ReLU()
      (3): Linear(in_features=512, out_features=512, bias=True)
      (4): ReLU()
      (5): Linear(in_features=512, out_features=36, bias=True)
      (6): Softmax(dim=-1)
    )
  )
)
discrete_policy 6 Discrete(6)
Agents No. [1] (index starting from 0) are not learnable.
Arguments:  {'env_name': 'pong_v3', 'env_type': 'pettingzoo', 'num_envs': 5, 'ram': False, 'seed': 'random', 'record_video': True, 'algorithm': 'NashDQN', 'algorithm_spec': {'episodic_update': False, 'dueling': False, 'replay_bu
…
