pygame 2.0.1 (SDL 2.0.14, Python 3.7.0)
Hello from the pygame community. https://www.pygame.org/contribute.html
surround_v1 pettingzoo
Load surround_v1 environment in type pettingzoo.
Env observation space: Box(0.0, 1.0, (128,), float32) action space: Discrete(5)
random seed: 91
<mars.env.wrappers.mars_wrappers.Dict2TupleWrapper object at 0x7fc8f56b7cc0>
DQNBase(
  (net): MLP(
    (body): Sequential(
      (0): Linear(in_features=128, out_features=256, bias=True)
      (1): ReLU()
      (2): Linear(in_features=256, out_features=256, bias=True)
      (3): ReLU()
      (4): Linear(in_features=256, out_features=256, bias=True)
      (5): ReLU()
      (6): Linear(in_features=256, out_features=256, bias=True)
      (7): ReLU()
      (8): Linear(in_features=256, out_features=5, bias=True)
    )
  )
)
DQNBase(
  (net): MLP(
    (body): Sequential(
      (0): Linear(in_features=128, out_features=256, bias=True)
      (1): ReLU()
      (2): Linear(in_features=256, out_features=256, bias=True)
      (3): ReLU()
      (4): Linear(in_features=256, out_features=256, bias=True)
      (5): ReLU()
      (6): Linear(in_features=256, out_features=256, bias=True)
      (7): ReLU()
      (8): Linear(in_features=256, out_features=5, bias=True)
    )
  )
)
Agents No. [0] (index starting from 0) are not learnable.
Load meta strategy:  [[0.    0.173 0.    0.    0.294 0.533]
 [0.419 0.    0.    0.    0.492 0.089]]
Load checkpoints (policy family):  [['28' '195' '344' '507' '1260' '3073']
 ['161' '303' '472' '637' '2104' '3376']]
Arguments:  {'env_name': 'surround_v1', 'env_type': 'pettingzoo', 'nu
…
