pygame 2.0.1 (SDL 2.0.14, Python 3.7.0)
Hello from the pygame community. https://www.pygame.org/contribute.html
boxing_v1 pettingzoo
Load boxing_v1 environment in type pettingzoo.
Env observation space: Box(0, 1, (12, 84, 84), uint8) action space: Discrete(18)
random seed: 24
<mars.env.wrappers.mars_wrappers.Dict2TupleWrapper object at 0x7f9c78f04978>
NashDQNBase(
  (net): ImpalaCNN(
    (cnn_layers): ModuleList(
      (0): Conv2d(12, 12, kernel_size=(3, 3), stride=(1, 1), padding=same)
      (1): Conv2d(12, 12, kernel_size=(3, 3), stride=(1, 1), padding=same)
    )
    (max_pool_layers): ModuleList(
      (0): MaxPool2d(kernel_size=3, stride=2, padding=2, dilation=1, ceil_mode=False)
      (1): MaxPool2d(kernel_size=3, stride=2, padding=2, dilation=1, ceil_mode=False)
    )
    (residual_blocks_whole): ModuleList(
      (0): ModuleList(
        (0): Sequential(
          (0): ReLU()
          (1): Conv2d(12, 12, kernel_size=(3, 3), stride=(1, 1), padding=same)
          (2): ReLU()
          (3): Conv2d(12, 12, kernel_size=(3, 3), stride=(1, 1), padding=same)
        )
        (1): Sequential(
          (0): ReLU()
          (1): Conv2d(12, 12, kernel_size=(3, 3), stride=(1, 1), padding=same)
          (2): ReLU()
          (3): Conv2d(12, 12, kernel_size=(3, 3), stride=(1, 1), padding=same)
        )
      )
      (1): ModuleList(
        (0): Sequential(
          (0): ReLU()
          (1): Conv2d(12, 12, kernel_size=(3, 3), stride=(1, 1), padding=same)
          (2): ReLU()
          (3): Conv2d(12, 12, kernel_size=(3, 3), stride=(1, 1), padding=same)
        )
        (1): Sequential(
          (0): ReLU()
          (1): Conv2d(12, 12, kernel_size=(3, 3), stride=(1, 1), padding=same)
          (2): ReLU()
          (3): Conv2d(12, 12, kernel_size=(3, 3), stride=(1, 1), padding=same)
        )
      )
    )
    (residual_blocks): ModuleList(
      (0): Sequential(
        (0): ReLU()
        (1): Conv2d(12, 12, kernel_size=(3, 3), stride=(1, 1), padding=same)
        (2): ReLU()
        (3): Conv2d(12, 12, kernel_size=(3, 3), stride=(1, 1), padding=same)
      )
      (1): Sequential(
        (0): ReLU()
        (1): Conv2d(12, 12, kernel_size=(3, 3), stride=(1, 1), padding=same)
        (2): ReLU()
        (3): Conv2d(12, 12, kernel_size=(3, 3), stride=(1, 1), padding=same)
      )
    )
    (body): Sequential(
      (0): Flatten()
      (1): Linear(in_features=84672, out_features=128, bias=True)
      (2): ReLU()
      (3): Linear(in_features=128, out_features=128, bias=True)
      (4): ReLU()
      (5): Linear(in_features=128, out_features=324, bias=True)
      (6): Softmax(dim=-1)
    )
  )
)
NashDQNBase(
  (net): ImpalaCNN(
    (cnn_layers): ModuleList(
      (0): Conv2d(12, 12, kernel_size=(3, 3), stride=(1, 1), padding=same)
      (1): Conv2d(12, 12, kernel_size=(3, 3), stride=(1, 1), padding=same)
    )
    (max_pool_layers): ModuleList(
      (0): MaxPool2d(kernel_size=3, stride=2, padding=2, dilation=1, ceil_mode=False)
      (1): MaxPool2d(kernel_size=3, stride=2, padding=2, dilation=1, ceil_mode=False)
    )
    (residual_blocks_whole): ModuleList(
      (0): ModuleList(
        (0): Sequential(
          (0): ReLU()
          (1): Conv2d(12, 12, kernel_size=(3, 3), stride=(1, 1), padding=same)
          (2): ReLU()
          (3): Conv2d(12, 12, kernel_size=(3, 3), stride=(1, 1), padding=same)
        )
        (1): Sequential(
          (0): ReLU()
          (1): Conv2d(12, 12, kernel_size=(3, 3), stride=(1, 1), padding=same)
          (2): ReLU()
          (3): Conv2d(12, 12, kernel_size=(3, 3), stride=(1, 1), padding=same)
        )
      )
      (1): ModuleList(
        (0): Sequential(
          (0): ReLU()
          (1): Conv2d(12, 12, kernel_size=(3, 3), stride=(1, 1), padding=same)
          (2): ReLU()
          (3): Conv2d(12, 12, kernel_size=(3, 3), stride=(1, 1), padding=same)
        )
        (1): Sequential(
          (0): ReLU()
          (1): Conv2d(12, 12, kernel_size=(3, 3), stride=(1, 1), padding=same)
          (2): ReLU()
          (3): Conv2d(12, 12, kernel_size=(3, 3), stride=(1, 1), padding=same)
        )
      )
    )
    (residual_blocks): ModuleList(
      (0): Sequential(
        (0): ReLU()
        (1): Conv2d(12, 12, kernel_size=(3, 3), stride=(1, 1), padding=same)
        (2): ReLU()
        (3): Conv2d(12, 12, kernel_size=(3, 3), stride=(1, 1), padding=same)
      )
      (1): Sequential(
        (0): ReLU()
        (1): Conv2d(12, 12, kernel_size=(3, 3), stride=(1, 1), padding=same)
        (2): ReLU()
        (3): Conv2d(12, 12, kernel_size=(3, 3), stride=(1, 1), padding=same)
      )
    )
    (body): Sequential(
      (0): Flatten()
      (1): Linear(in_features=84672, out_features=128, bias=True)
      (2): ReLU()
      (3): Linear(in_features=128, out_features=128, bias=True)
      (4): ReLU()
      (5): Linear(in_features=128, out_features=324, bias=True)
      (6): Softmax(dim=-1)
    )
  )
)
Agents No. [1] (index starting from 0) are not learnable.
Arguments:  {'env_name': 'boxing_v1', 'env_type': 'pettingzoo', 'num_envs': 1, 'ram': False, 'seed': 'random', 'algorithm': 'NashDQN', 'algorithm_spec': {'episodic_update': False, 'dueling': False, 'replay_buffer_size': '1e5', 'gamma': 0.99, 'multi_step': 1
…
