…
/home/zihan/anaconda3/envs/x/lib/python3.7/site-packages/gym/logger.py:30: UserWarning: [33mWARN: Environment '<class 'robosumo.envs.sumo.SumoEnv'>' has deprecated methods '_step' and '_reset' rather than 'step' and 'reset'. Compatibility code invoked. Set _gym_disable_underscore_compat = True to disable this behavior.[0m
  warnings.warn(colorize('%s: %s'%('WARN', msg % args), 'yellow'))
2022-08-03 16:48:59.546884: I tensorflow/core/util/util.cc:169] oneDNN custom operations are on. You may see slightly different numerical results due to floating-point round-off errors from different computation orders. To turn them off, set the environment variable `TF_ENABLE_ONEDNN_OPTS=0`.
random seed: [499, 618]
<SubprocVectorEnv instance>
gaussian_policy 8 Box(8,)
2
[MLP(
  (body): Sequential(
    (0): Linear(in_features=120, out_features=128, bias=True)
    (1): ReLU()
    (2): Linear(in_features=128, out_features=128, bias=True)
    (3): ReLU()
    (4): Linear(in_features=128, out_features=120, bias=True)
  )
), MLP(
  (body): Sequential(
    (0): Linear(in_features=120, out_features=128, bias=True)
    (1): ReLU()
    (2): Linear(in_features=128, out_features=128, bias=True)
    (3): ReLU()
    (4): Linear(in_features=128, out_features=120, bias=True)
  )
)] [MLP(
  (body): Sequential(
    (0): Linear(in_features=120, out_features=128, bias=True)
    (1): Linear(in_features=128, out_features=16, bias=True)
    (2): Tanh()
  )
), MLP(
  (body): Sequential(
    (0): Linear(in_features=120, out_features=128, bias=True)
    (1): Linear(in_features=128, out_features=16, bias=True)
    (2): Tanh()
  )
)] [MLP(
  (body): Sequential(
    (0): Linear(in_features=120, out_features=128, bias=True)
    (1): ReLU()
    (2): Linear(in_features=128, out_features=1, bias=True)
  )
), MLP(
  (body): Sequential(
    (0): Linear(in_features=120, out_features=128, bias=True)
    (1): ReLU()
    (2): Linear(in_features=128, out_features=1, bias=True)
  )
)] MLP(
  (body): Sequential(
    (0): Linear(in_features=240, out_features=128, bias=True)
    (1): ReLU()
    (2): Linear(in_features=128, out_features=1, bias=True)
  )
)
gaussian_policy 8 Box(8,)
2
[MLP(
  (body): Sequential(
    (0): Linear(in_features=120, out_features=128, bias=True)
    (1): ReLU()
    (2): Linear(in_features=128, out_features=128, bias=True)
    (3): ReLU()
    (4): Linear(in_features=128, out_features=120, bias=True)
  )
), MLP(
  (body): Sequential(
    (0): Linear(in_features=120, out_features=128, bias=True)
    (1): ReLU()
    (2): Linear(in_features=128, out_features=128, bias=True)
    (3): ReLU()
    (4): Linear(in_features=128, out_features=120, bias=True)
  )
)] [MLP(
  (body): Sequential(
    (0): Linear(in_features=120, out_features=128, bias=True)
    (1): Linear(in_features=128, out_features=16, bias=True)
    (2): Tanh()
  )
), MLP(
  (body): Sequential(
    (0): Linear(in_features=120, out_features=128, bias=True)
    (1): Linear(in_features=128, out_features=16, bias=True)
    (2): Tanh()
  )
)] [MLP(
  (body): Sequential(
    (0): Linear(in_features=120, out_features=128, bias=True)
    (1): ReLU()
    (2): Linear(in_features=128, out_features=1, bias=True)
  )
), MLP(
  (body): Sequential(
    (0): Linear(in_features=120, out_features=128, bias=True)
    (1): ReLU()
    (2): Linear(in_features=128, out_features=1, bias=True)
  )
)] MLP(
  (body): Sequential(
    (0): Linear(in_features=240, out_features=128, bias=True)
    (1): ReLU()
    (2): Linear(in_features=128, out_features=1, bias=True)
  )
)
gaussian_policy 8 Box(8,)
Agents No. [1] (index starting from 0) are not learnable.
Arguments:  {'env_name': 'RoboSumo-Ant-vs-Ant-v0', 'env_type': 'robosumo', 'num_envs': 2, 'ram': True, 'seed': 'random', 'record_video': False, 'against_baseline': False, 'algorithm': 'NashPPO', 'algorithm_spec': {'episodic_update': True, 'dueling': False, 'rep
…
