pygame 2.0.1 (SDL 2.0.14, Python 3.7.0)
Hello from the pygame community. https://www.pygame.org/contribute.html
double_dunk_v2 pettingzoo
Load double_dunk_v2 environment in type pettingzoo.
Env observation space: Box(0.0, 1.0, (128,), float32) action space: Discrete(18)
random seed: 699
<mars.env.wrappers.mars_wrappers.Dict2TupleWrapper object at 0x7fbfcd3a46d8>
DQNBase(
  (net): MLP(
    (body): Sequential(
      (0): Linear(in_features=128, out_features=128, bias=True)
      (1): ReLU()
      (2): Linear(in_features=128, out_features=128, bias=True)
      (3): ReLU()
      (4): Linear(in_features=128, out_features=128, bias=True)
      (5): ReLU()
      (6): Linear(in_features=128, out_features=128, bias=True)
      (7): ReLU()
      (8): Linear(in_features=128, out_features=18, bias=True)
    )
  )
)
DQNBase(
  (net): MLP(
    (body): Sequential(
      (0): Linear(in_features=128, out_features=128, bias=True)
      (1): ReLU()
      (2): Linear(in_features=128, out_features=128, bias=True)
      (3): ReLU()
      (4): Linear(in_features=128, out_features=128, bias=True)
      (5): ReLU()
      (6): Linear(in_features=128, out_features=128, bias=True)
      (7): ReLU()
      (8): Linear(in_features=128, out_features=18, bias=True)
    )
  )
)
Agents No. [1] (index starting from 0) are not learnable.
Load meta strategy:  [[0.091 0.091 0.091 ... 0.091 0.091 0.091]
 [0.091 0.091 0.091 ... 0.091 0.091 0.091]]
Load checkpoints (policy family):  [['21' '98' '162' ... '3879' '5226' '6956']
 ['42' '135' '292' ... '4472' '6036' '7277']]
Arguments:  {'env_name': 'double_dunk_v2', 'env_type
…
