…
ion': 'Tanh', 'output_activation': False}, 'value': {'hidden_dim_list': [128], 'hidden_activation': 'Tanh', 'output_activation': False}}, 'marl_method': 'nash_ppo', 'marl_spec': {'min_update_interval': 20, 'score_avg_window': 10, 'global_state': True}, 'record_video_interval': 2000}
Ant-v2 gym
record video: interval 2000, length 300
Load Ant-v2 environment in type gym.
Env observation space: Box(-inf, inf, (111,), float64) action space: Box(-1.0, 1.0, (8,), float32)
random seed: [626, 504, 184, 867, 546]
<SubprocVectorEnv instance>
Feature networks:  [MLP(
  (body): Sequential(
    (0): Linear(in_features=111, out_features=128, bias=True)
    (1): Tanh()
    (2): Linear(in_features=128, out_features=128, bias=True)
    (3): Tanh()
    (4): Linear(in_features=128, out_features=111, bias=True)
  )
), MLP(
  (body): Sequential(
    (0): Linear(in_features=111, out_features=128, bias=True)
    (1): Tanh()
    (2): Linear(in_features=128, out_features=128, bias=True)
    (3): Tanh()
    (4): Linear(in_features=128, out_features=111, bias=True)
  )
)] 
Policy networks:  [MLP(
  (body): Sequential(
    (0): Linear(in_features=111, out_features=128, bias=True)
    (1): Tanh()
    (2): Linear(in_features=128, out_features=16, bias=True)
  )
), MLP(
  (body): Sequential(
    (0): Linear(in_features=111, out_features=128, bias=True)
    (1): Tanh()
    (2): Linear(in_features=128, out_features=16, bias=True)
  )
)] 
Value networks:  [MLP(
  (body): Sequential(
    (0): Linear(in_features=111, out_features=128, bias=True)
    (1): Tanh()
    (2): Linear(in_features=128, out_features=1, bias=True)
  )
), MLP(
  (body): Sequential(
    (0): Linear(in_features=111, out_features=128, bias=True)
    (1): Tanh()
    (2): Linear(in_features=128, out_features=1, bias=True)
  )
)] 
Common layers:  MLP(
  (body): Sequential(
    (0): Linear(in_features=222, out_features=128, bias=True)
    (1): Tanh()
    (2): Linear(in_features=128, out_features=1, bias=True)
  )
)
Feature networks:  [MLP(
  (body): Sequential(
    (0): Linear(in_features=111, out_features=128, bias=True)
    (1): Tanh()
    (2): Linear(in_features=128, out_features=128, bias=True)
    (3): Tanh()
    (4): Linear(in_features=128, out_features=111, bias=True)
  )
), MLP(
  (body): Sequential(
    (0): Linear(in_features=111, out_features=128, bias=True)
    (1): Tanh()
    (2): Linear(in_features=128, out_features=128, bias=True)
    (3): Tanh()
    (4): Linear(in_features=128, out_features=111, bias=True)
  )
)] 
Policy networks:  [MLP(
  (body): Sequential(
    (0): Linear(in_features=111, out_features=128, bias=True)
    (1): Tanh()
    (2): Linear(in_features=128, out_features=16, bias=True)
  )
), MLP(
  (body): Sequential(
    (0): Linear(in_features=111, out_features=128, bias=True)
    (1): Tanh()
    (2): Linear(in_features=128, out_features=16, bias=True)
  )
)] 
Value networks:  [MLP(
  (body): Sequential(
    (0): Linear(in_features=111, out_features=128, bias=True)
    (1): Tanh()
    (2): Linear(in_features=128, out_features=1, bias=True)
  )
), MLP(
  (body): Sequential(
    (0): Linear(in_features=111, out_features=128, bias=True)
    (1): Tanh()
    (2): Linear(in_features=128, out_features=1, bias=True)
  )
)] 
Common layers:  MLP(
  (body): Sequential(
    (0): Linear(in_features=222, out_features=128, bias=True)
    (1): Tanh()
    (2): Linear(in_features=128, out_features=1, bias=True)
  )
)
Agents No. [1] (index starting from 0) are not learnable.
Arguments:  {'env_name': 'Ant-v2', 'env_type': 'gym', 'num_envs': 5, 'ram': True, 'seed': 'random', 'adversarial': True, 'record_video': True, 'against_baseline': False, 'algorithm': 'NashPPO', 'algorithm_spec': {'episodic_update': False, 'dueling': False, 'replay_buffer_size': '1e5', 'g
…
