…
  action = torch.IntTensor(action).to(self.device)
/home/zihan/anaconda3/envs/x/lib/python3.7/site-packages/ecos/ecos.py:26: UserWarning: Converting G to a CSC matrix; may take a while.
  warn("Converting G to a CSC matrix; may take a while.")
/home/zihan/anaconda3/envs/x/lib/python3.7/site-packages/ecos/ecos.py:29: UserWarning: Converting A to a CSC matrix; may take a while.
  warn("Converting A to a CSC matrix; may take a while.")
random seed: [988, 999, 76, 814, 694]
<mars.env.wrappers.mars_wrappers.SSVecWrapper object at 0x7feec5162358>
discrete_policy 18 Discrete(18)
NashDQNBase(
  (net): CNN(
    (features): Sequential(
      (0): Conv2d(4, 32, kernel_size=(8, 8), stride=(4, 4))
      (1): ReLU()
      (2): Conv2d(32, 64, kernel_size=(4, 4), stride=(2, 2))
      (3): ReLU()
      (4): Conv2d(64, 64, kernel_size=(3, 3), stride=(1, 1))
      (5): ReLU()
    )
    (body): Sequential(
      (0): Flatten()
      (1): Linear(in_features=3136, out_features=512, bias=True)
      (2): ReLU()
      (3): Linear(in_features=512, out_features=512, bias=True)
      (4): ReLU()
      (5): Linear(in_features=512, out_features=324, bias=True)
      (6): Softmax(dim=-1)
    )
  )
)
discrete_policy 18 Discrete(18)
NashDQNBase(
  (net): CNN(
    (features): Sequential(
      (0): Conv2d(4, 32, kernel_size=(8, 8), stride=(4, 4))
      (1): ReLU()
      (2): Conv2d(32, 64, kernel_size=(4, 4), stride=(2, 2))
      (3): ReLU()
      (4): Conv2d(64, 64, kernel_size=(3, 3), stride=(1, 1))
      (5): ReLU()
    )
    (body): Sequential(
      (0): Flatten()
      (1): Linear(in_features=3136, out_features=512, bias=True)
      (2): ReLU()
      (3): Linear(in_features=512, out_features=512, bias=True)
      (4): ReLU()
      (5): Linear(in_features=512, out_features=324, bias=True)
      (6): Softmax(dim=-1)
    )
  )
)
discrete_policy 18 Discrete(18)
Agents No. [1] (index starting from 0) are not learnable.
Arguments:  {'env_name': 'boxing_v2', 'env_type': 'pettingzoo', 'num_envs': 5, 'ram': False, 'seed': 'random', 'record_video': True, 'algorithm': 'NashDQN', 'algorithm_spec': {'episodic_update': False, 'dueling': False, 'repl
…
