pygame 2.0.1 (SDL 2.0.14, Python 3.7.0)
Hello from the pygame community. https://www.pygame.org/contribute.html
boxing_v1 pettingzoo
Load boxing_v1 environment in type pettingzoo.
Env observation space: Box(0.0, 1.0, (128,), float32) action space: Discrete(18)
random seed: 236
<mars.env.wrappers.mars_wrappers.Dict2TupleWrapper object at 0x7f313efc06a0>
DQNBase(
  (net): MLP(
    (body): Sequential(
      (0): Linear(in_features=128, out_features=128, bias=True)
      (1): ReLU()
      (2): Linear(in_features=128, out_features=128, bias=True)
      (3): ReLU()
      (4): Linear(in_features=128, out_features=128, bias=True)
      (5): ReLU()
      (6): Linear(in_features=128, out_features=128, bias=True)
      (7): ReLU()
      (8): Linear(in_features=128, out_features=18, bias=True)
    )
  )
)
DQNBase(
  (net): MLP(
    (body): Sequential(
      (0): Linear(in_features=128, out_features=128, bias=True)
      (1): ReLU()
      (2): Linear(in_features=128, out_features=128, bias=True)
      (3): ReLU()
      (4): Linear(in_features=128, out_features=128, bias=True)
      (5): ReLU()
      (6): Linear(in_features=128, out_features=128, bias=True)
      (7): ReLU()
      (8): Linear(in_features=128, out_features=18, bias=True)
    )
  )
)
Agents No. [1] (index starting from 0) are not learnable.
Load meta strategy:  [array([0.022, 0.022, 0.022, ..., 0.022, 0.022, 0.022]) array([0.023, 0.023, 0.023, ..., 0.023, 0.023, 0.023])]
Load checkpoints (policy family):  [list(['493', '867', '1037', '1156', '1213', '1322', '1441', '1534', '1630', '1744', '1881', '2005', '2053', '2264', '2416', '2469', '3201', '3306', '3372', '3644', '3799', '3870', '3936', '4031', '4103', '4241', '4323', '4385', '4459', '4588', '4755', '4984', '5433', '5713', '5823', '5989', '6197', '6365', '6456', '6603', '6698', '6919', '7444', '7632', '7728'])
…
