…
  File "/home/zihan/research/MARS/general_exploit.py", line 2, in <module>
    from mars.env.import_env import make_env
  File "/home/zihan/research/MARS/mars/env/import_env.py", line 31, in <module>
    import gym
ModuleNotFoundError: No module named 'gym'
pygame 2.0.1 (SDL 2.0.14, Python 3.7.0)
Hello from the pygame community. https://www.pygame.org/contribute.html
tennis_v2 pettingzoo
Load tennis_v2 environment in type pettingzoo.
Env observation space: Box(0.0, 1.0, (128,), float32) action space: Discrete(18)
random seed: 691
<mars.env.wrappers.mars_wrappers.Dict2TupleWrapper object at 0x7f0a13eac400>
DQNBase(
  (net): MLP(
    (body): Sequential(
      (0): Linear(in_features=128, out_features=128, bias=True)
      (1): ReLU()
      (2): Linear(in_features=128, out_features=128, bias=True)
      (3): ReLU()
      (4): Linear(in_features=128, out_features=128, bias=True)
      (5): ReLU()
      (6): Linear(in_features=128, out_features=128, bias=True)
      (7): ReLU()
      (8): Linear(in_features=128, out_features=18, bias=True)
    )
  )
)
DQNBase(
  (net): MLP(
    (body): Sequential(
      (0): Linear(in_features=128, out_features=128, bias=True)
      (1): ReLU()
      (2): Linear(in_features=128, out_features=128, bias=True)
      (3): ReLU()
      (4): Linear(in_features=128, out_features=128, bias=True)
      (5): ReLU()
      (6): Linear(in_features=128, out_features=128, bias=True)
      (7): ReLU()
      (8): Linear(in_features=128, out_features=18, bias=True)
    )
  )
)
Agents No. [1] (index starting from 0) are not learnable.
Load meta strategy:  [[0.067 0.067 0.067 ... 0.067 0.067 0.067]
 [0.067 0.067 0.067 ... 0.067 0.067 0.067]]
Load checkpoints (policy family):  [['21' '352' '453' ... '6108' '6272' '7471']
 ['327' '403' '592' ... '6129' '6307' '7547']]
Arguments:  {'env_name': 'tennis_v2', 'env_type': 
…
