pygame 2.0.1 (SDL 2.0.14, Python 3.7.0)
Hello from the pygame community. https://www.pygame.org/contribute.html
boxing_v1 pettingzoo
Load boxing_v1 environment in type pettingzoo.
Env observation space: Box(0.0, 1.0, (128,), float32) action space: Discrete(18)
random seed: 352
<mars.env.wrappers.mars_wrappers.Dict2TupleWrapper object at 0x7f04bb0585f8>
DQNBase(
  (net): MLP(
    (body): Sequential(
      (0): Linear(in_features=128, out_features=128, bias=True)
      (1): ReLU()
      (2): Linear(in_features=128, out_features=128, bias=True)
      (3): ReLU()
      (4): Linear(in_features=128, out_features=128, bias=True)
      (5): ReLU()
      (6): Linear(in_features=128, out_features=128, bias=True)
      (7): ReLU()
      (8): Linear(in_features=128, out_features=18, bias=True)
    )
  )
)
DQNBase(
  (net): MLP(
    (body): Sequential(
      (0): Linear(in_features=128, out_features=128, bias=True)
      (1): ReLU()
      (2): Linear(in_features=128, out_features=128, bias=True)
      (3): ReLU()
      (4): Linear(in_features=128, out_features=128, bias=True)
      (5): ReLU()
      (6): Linear(in_features=128, out_features=128, bias=True)
      (7): ReLU()
      (8): Linear(in_features=128, out_features=18, bias=True)
    )
  )
)
Agents No. [1] (index starting from 0) are not learnable.
Load meta strategy:  [array([0.023, 0.023, 0.023, ..., 0.023, 0.023, 0.023]) array([0.024, 0.024, 0.024, ..., 0.024, 0.024, 0.024])]
Load checkpoints (policy family):  [list(['319', '928', '1212', '1327', '1426', '1510', '1798', '2192', '2314', '2651', '2735', '2903', '3052', '3123', '3187', '3331', '3573', '3780', '3862', '4033', '4175', '4304', '4402', '4459', '4533', '4667', '5173', '5261', '5321', '5407', '5473', '5660', '6419', '6509', '6653', '6809', '6914', '7039', '7326', '7475', '7624', '7774', '7939'])
…
