…
/home/zihan/anaconda3/envs/x/lib/python3.7/site-packages/pettingzoo/utils/conversions.py:101: UserWarning: The `action_spaces` dictionary is deprecated. Use the `action_space` function instead.
  "The `action_spaces` dictionary is deprecated. Use the `action_space` function instead."
wandb: 429 encountered (Filestream rate limit exceeded, retrying in 2.130605795625078 seconds), retrying request
pong_v3 pettingzoo
record video: interval 1000, length 300
Load pong_v3 environment in type pettingzoo.
Env observation space: Box(0.0, 1.0, (128,), float32) action space: Discrete(6)
random seed: 259
<RecordVideo<mars.env.wrappers.mars_wrappers.Dict2TupleWrapper object at 0x7fe4e0bf9908>>
discrete_policy 6 Discrete(6)
NashDQNBase(
  (net): MLP(
    (body): Sequential(
      (0): Linear(in_features=128, out_features=128, bias=True)
      (1): ReLU()
      (2): Linear(in_features=128, out_features=128, bias=True)
      (3): ReLU()
      (4): Linear(in_features=128, out_features=128, bias=True)
      (5): ReLU()
      (6): Linear(in_features=128, out_features=128, bias=True)
      (7): ReLU()
      (8): Linear(in_features=128, out_features=36, bias=True)
    )
  )
)
discrete_policy 6 Discrete(6)
NashDQNBase(
  (net): MLP(
    (body): Sequential(
      (0): Linear(in_features=128, out_features=128, bias=True)
      (1): ReLU()
      (2): Linear(in_features=128, out_features=128, bias=True)
      (3): ReLU()
      (4): Linear(in_features=128, out_features=128, bias=True)
      (5): ReLU()
      (6): Linear(in_features=128, out_features=128, bias=True)
      (7): ReLU()
      (8): Linear(in_features=128, out_features=36, bias=True)
    )
  )
)
discrete_policy 6 Discrete(6)
Agents No. [1] (index starting from 0) are not learnable.
{'env_name': 'pong_v3', 'env_type': 'pettingzoo', 'num_envs': 1, 'ram': True, 'seed': 'random', 'record_video': True, 'algorithm': 'NashDQN', 'algorithm_spec': {'episodic_update': False, 'dueling': False, 'replay_buffer_size': '1e5', 'gamma': 0.99, 'multi
…
