…
}}
double_dunk_v3 pettingzoo
record video:  100000 100
Load double_dunk_v3 environment in type pettingzoo.
Env observation space: <bound method aec_to_parallel_wrapper.observation_space of <pettingzoo.utils.conversions.aec_to_parallel_wrapper object at 0x7ff86b564400>> action space: <bound method aec_to_parallel_wrapper.action_space of <pettingzoo.utils.conversions.aec_to_parallel_wrapper object at 0x7ff86b564400>>
random seed: [983, 268, 161, 396, 848]
<mars.env.wrappers.mars_wrappers.SSVecWrapper object at 0x7ff86b6a0eb8>
discrete_policy 18 Discrete(18)
[CNN(
  (features): Sequential(
    (0): Conv2d(4, 32, kernel_size=(8, 8), stride=(4, 4))
    (1): ReLU()
    (2): Conv2d(32, 64, kernel_size=(4, 4), stride=(2, 2))
    (3): ReLU()
    (4): Conv2d(64, 64, kernel_size=(3, 3), stride=(1, 1))
    (5): ReLU()
  )
  (body): Sequential(
    (0): Flatten()
    (1): Linear(in_features=3136, out_features=512, bias=True)
    (2): ReLU()
    (3): Linear(in_features=512, out_features=256, bias=True)
  )
), CNN(
  (features): Sequential(
    (0): Conv2d(4, 32, kernel_size=(8, 8), stride=(4, 4))
    (1): ReLU()
    (2): Conv2d(32, 64, kernel_size=(4, 4), stride=(2, 2))
    (3): ReLU()
    (4): Conv2d(64, 64, kernel_size=(3, 3), stride=(1, 1))
    (5): ReLU()
  )
  (body): Sequential(
    (0): Flatten()
    (1): Linear(in_features=3136, out_features=512, bias=True)
    (2): ReLU()
    (3): Linear(in_features=512, out_features=256, bias=True)
  )
)] [MLP(
  (body): Sequential(
    (0): Linear(in_features=256, out_features=512, bias=True)
    (1): Linear(in_features=512, out_features=18, bias=True)
    (2): Softmax(dim=-1)
  )
), MLP(
  (body): Sequential(
    (0): Linear(in_features=256, out_features=512, bias=True)
    (1): Linear(in_features=512, out_features=18, bias=True)
    (2): Softmax(dim=-1)
  )
)] [MLP(
  (body): Sequential(
    (0): Linear(in_features=256, out_features=512, bias=True)
    (1): ReLU()
    (2): Linear(in_features=512, out_features=1, bias=True)
  )
), MLP(
  (body): Sequential(
    (0): Linear(in_features=256, out_features=512, bias=True)
    (1): ReLU()
    (2): Linear(in_features=512, out_features=1, bias=True)
  )
)] MLP(
  (body): Sequential(
    (0): Linear(in_features=512, out_features=512, bias=True)
    (1): ReLU()
    (2): Linear(in_features=512, out_features=1, bias=True)
  )
)
discrete_policy 18 Discrete(18)
[CNN(
  (features): Sequential(
    (0): Conv2d(4, 32, kernel_size=(8, 8), stride=(4, 4))
    (1): ReLU()
    (2): Conv2d(32, 64, kernel_size=(4, 4), stride=(2, 2))
    (3): ReLU()
    (4): Conv2d(64, 64, kernel_size=(3, 3), stride=(1, 1))
    (5): ReLU()
  )
  (body): Sequential(
    (0): Flatten()
    (1): Linear(in_features=3136, out_features=512, bias=True)
    (2): ReLU()
    (3): Linear(in_features=512, out_features=256, bias=True)
  )
), CNN(
  (features): Sequential(
    (0): Conv2d(4, 32, kernel_size=(8, 8), stride=(4, 4))
    (1): ReLU()
    (2): Conv2d(32, 64, kernel_size=(4, 4), stride=(2, 2))
    (3): ReLU()
    (4): Conv2d(64, 64, kernel_size=(3, 3), stride=(1, 1))
    (5): ReLU()
  )
  (body): Sequential(
    (0): Flatten()
    (1): Linear(in_features=3136, out_features=512, bias=True)
    (2): ReLU()
    (3): Linear(in_features=512, out_features=256, bias=True)
  )
)] [MLP(
  (body): Sequential(
    (0): Linear(in_features=256, out_features=512, bias=True)
    (1): Linear(in_features=512, out_features=18, bias=True)
    (2): Softmax(dim=-1)
  )
), MLP(
  (body): Sequential(
    (0): Linear(in_features=256, out_features=512, bias=True)
    (1): Linear(in_features=512, out_features=18, bias=True)
    (2): Softmax(dim=-1)
  )
)] [MLP(
  (body): Sequential(
    (0): Linear(in_features=256, out_features=512, bias=True)
    (1): ReLU()
    (2): Linear(in_features=512, out_features=1, bias=True)
  )
), MLP(
  (body): Sequential(
    (0): Linear(in_features=256, out_features=512, bias=True)
    (1): ReLU()
    (2): Linear(in_features=512, out_features=1, bias=True)
  )
)] MLP(
  (body): Sequential(
    (0): Linear(in_features=512, out_features=512, bias=True)
    (1): ReLU()
    (2): Linear(in_features=512, out_features=1, bias=True)
  )
)
discrete_policy 18 Discrete(18)
Agents No. [1] (index starting from 0) are not learnable.
Arguments:  {'env_name': 'double_dunk_v3', 'env_type': 'pettingzoo', 'num_envs': 5, 'ram': False, 'seed': 'random', 'record_video': True, 'algorithm': 'NashPPO', 'algorithm_spec': {'episodic_update': True, 'dueling': False, 'replay_buffer_size': '1e5', 'gamma'
…
