…
2022-08-05 13:53:49.067528: I tensorflow/core/util/util.cc:169] oneDNN custom operations are on. You may see slightly different numerical results due to floating-point round-off errors from different computation orders. To turn them off, set the environment variable `TF_ENABLE_ONEDNN_OPTS=0`.
RoboSumo-Ant-vs-Ant-v0 robosumo
Load RoboSumo-Ant-vs-Ant-v0 environment in type robosumo.
Env observation space: Box(120,) action space: Box(8,)
random seed: 124
<mars.env.wrappers.mars_wrappers.ZeroSumWrapper object at 0x7fd30b251990>
gaussian_policy 8 Box(8,)
2
[MLP(
  (body): Sequential(
    (0): Linear(in_features=120, out_features=128, bias=True)
    (1): ReLU()
    (2): Linear(in_features=128, out_features=128, bias=True)
    (3): ReLU()
    (4): Linear(in_features=128, out_features=120, bias=True)
  )
), MLP(
  (body): Sequential(
    (0): Linear(in_features=120, out_features=128, bias=True)
    (1): ReLU()
    (2): Linear(in_features=128, out_features=128, bias=True)
    (3): ReLU()
    (4): Linear(in_features=128, out_features=120, bias=True)
  )
)] [MLP(
  (body): Sequential(
    (0): Linear(in_features=120, out_features=128, bias=True)
    (1): Linear(in_features=128, out_features=16, bias=True)
    (2): Tanh()
  )
), MLP(
  (body): Sequential(
    (0): Linear(in_features=120, out_features=128, bias=True)
    (1): Linear(in_features=128, out_features=16, bias=True)
    (2): Tanh()
  )
)] [MLP(
  (body): Sequential(
    (0): Linear(in_features=120, out_features=128, bias=True)
    (1): ReLU()
    (2): Linear(in_features=128, out_features=1, bias=True)
  )
), MLP(
  (body): Sequential(
    (0): Linear(in_features=120, out_features=128, bias=True)
    (1): ReLU()
    (2): Linear(in_features=128, out_features=1, bias=True)
  )
)] MLP(
  (body): Sequential(
    (0): Linear(in_features=240, out_features=128, bias=True)
    (1): ReLU()
    (2): Linear(in_features=128, out_features=1, bias=True)
  )
)
gaussian_policy 8 Box(8,)
gaussian_policy 8 Box(8,)
Agents No. [0] (index starting from 0) are not learnable.
Agent No. [0] loads model from:  ./data/model/202208031648/robosumo_RoboSumo-Ant-vs-Ant-v0_nash_ppo/8000_0
Arguments:  {'env_name': 'RoboSumo-Ant-vs-Ant-v0', 'env_type': 'robosumo', 'num_envs': 1, 'ram': True, 'seed': 'random', 'reco
…
