…
Load tennis_v3 environment in type pettingzoo.
Env observation space: <bound method aec_to_parallel_wrapper.observation_space of <pettingzoo.utils.conversions.aec_to_parallel_wrapper object at 0x7fa4357eadd8>> action space: <bound method aec_to_parallel_wrapper.action_space of <pettingzoo.utils.conversions.aec_to_parallel_wrapper object at 0x7fa4357eadd8>>
<mars.env.wrappers.mars_wrappers.SSVecWrapper object at 0x7fa4357e7208>
random seed: [976, 986, 982, 869, 829]
<mars.env.wrappers.mars_wrappers.SSVecWrapper object at 0x7fa4357e7208>
discrete_policy 18 Discrete(18)
NashDQNBase(
  (net): ImpalaCNN(
    (cnn_layers): ModuleList(
      (0): Conv2d(4, 4, kernel_size=(3, 3), stride=(1, 1), padding=same)
      (1): Conv2d(4, 4, kernel_size=(3, 3), stride=(1, 1), padding=same)
    )
    (max_pool_layers): ModuleList(
      (0): MaxPool2d(kernel_size=3, stride=2, padding=2, dilation=1, ceil_mode=False)
      (1): MaxPool2d(kernel_size=3, stride=2, padding=2, dilation=1, ceil_mode=False)
    )
    (residual_blocks_whole): ModuleList(
      (0): ModuleList(
        (0): Sequential(
          (0): ReLU()
          (1): Conv2d(4, 4, kernel_size=(3, 3), stride=(1, 1), padding=same)
          (2): ReLU()
          (3): Conv2d(4, 4, kernel_size=(3, 3), stride=(1, 1), padding=same)
        )
        (1): Sequential(
          (0): ReLU()
          (1): Conv2d(4, 4, kernel_size=(3, 3), stride=(1, 1), padding=same)
          (2): ReLU()
          (3): Conv2d(4, 4, kernel_size=(3, 3), stride=(1, 1), padding=same)
        )
      )
      (1): ModuleList(
        (0): Sequential(
          (0): ReLU()
          (1): Conv2d(4, 4, kernel_size=(3, 3), stride=(1, 1), padding=same)
          (2): ReLU()
          (3): Conv2d(4, 4, kernel_size=(3, 3), stride=(1, 1), padding=same)
        )
        (1): Sequential(
          (0): ReLU()
          (1): Conv2d(4, 4, kernel_size=(3, 3), stride=(1, 1), padding=same)
          (2): ReLU()
          (3): Conv2d(4, 4, kernel_size=(3, 3), stride=(1, 1), padding=same)
        )
      )
    )
    (residual_blocks): ModuleList(
      (0): Sequential(
        (0): ReLU()
        (1): Conv2d(4, 4, kernel_size=(3, 3), stride=(1, 1), padding=same)
        (2): ReLU()
        (3): Conv2d(4, 4, kernel_size=(3, 3), stride=(1, 1), padding=same)
      )
      (1): Sequential(
        (0): ReLU()
        (1): Conv2d(4, 4, kernel_size=(3, 3), stride=(1, 1), padding=same)
        (2): ReLU()
        (3): Conv2d(4, 4, kernel_size=(3, 3), stride=(1, 1), padding=same)
      )
    )
    (body): Sequential(
      (0): Flatten()
      (1): Linear(in_features=28224, out_features=128, bias=True)
      (2): ReLU()
      (3): Linear(in_features=128, out_features=128, bias=True)
      (4): ReLU()
      (5): Linear(in_features=128, out_features=324, bias=True)
      (6): Softmax(dim=-1)
    )
  )
)
discrete_policy 18 Discrete(18)
NashDQNBase(
  (net): ImpalaCNN(
    (cnn_layers): ModuleList(
      (0): Conv2d(4, 4, kernel_size=(3, 3), stride=(1, 1), padding=same)
      (1): Conv2d(4, 4, kernel_size=(3, 3), stride=(1, 1), padding=same)
    )
    (max_pool_layers): ModuleList(
      (0): MaxPool2d(kernel_size=3, stride=2, padding=2, dilation=1, ceil_mode=False)
      (1): MaxPool2d(kernel_size=3, stride=2, padding=2, dilation=1, ceil_mode=False)
    )
    (residual_blocks_whole): ModuleList(
      (0): ModuleList(
        (0): Sequential(
          (0): ReLU()
          (1): Conv2d(4, 4, kernel_size=(3, 3), stride=(1, 1), padding=same)
          (2): ReLU()
          (3): Conv2d(4, 4, kernel_size=(3, 3), stride=(1, 1), padding=same)
        )
        (1): Sequential(
          (0): ReLU()
          (1): Conv2d(4, 4, kernel_size=(3, 3), stride=(1, 1), padding=same)
          (2): ReLU()
          (3): Conv2d(4, 4, kernel_size=(3, 3), stride=(1, 1), padding=same)
        )
      )
      (1): ModuleList(
        (0): Sequential(
          (0): ReLU()
          (1): Conv2d(4, 4, kernel_size=(3, 3), stride=(1, 1), padding=same)
          (2): ReLU()
          (3): Conv2d(4, 4, kernel_size=(3, 3), stride=(1, 1), padding=same)
        )
        (1): Sequential(
          (0): ReLU()
          (1): Conv2d(4, 4, kernel_size=(3, 3), stride=(1, 1), padding=same)
          (2): ReLU()
          (3): Conv2d(4, 4, kernel_size=(3, 3), stride=(1, 1), padding=same)
        )
      )
    )
    (residual_blocks): ModuleList(
      (0): Sequential(
        (0): ReLU()
        (1): Conv2d(4, 4, kernel_size=(3, 3), stride=(1, 1), padding=same)
        (2): ReLU()
        (3): Conv2d(4, 4, kernel_size=(3, 3), stride=(1, 1), padding=same)
      )
      (1): Sequential(
        (0): ReLU()
        (1): Conv2d(4, 4, kernel_size=(3, 3), stride=(1, 1), padding=same)
        (2): ReLU()
        (3): Conv2d(4, 4, kernel_size=(3, 3), stride=(1, 1), padding=same)
      )
    )
    (body): Sequential(
      (0): Flatten()
      (1): Linear(in_features=28224, out_features=128, bias=True)
      (2): ReLU()
      (3): Linear(in_features=128, out_features=128, bias=True)
      (4): ReLU()
      (5): Linear(in_features=128, out_features=324, bias=True)
      (6): Softmax(dim=-1)
    )
  )
)
discrete_policy 18 Discrete(18)
Agents No. [1] (index starting from 0) are not learnable.
Arguments:  {'env_name': 'tennis_v3', 'env_type': 'pettingzoo', 'num_envs': 5, 'ram': False, 'seed': 'random', 'algorithm': 'NashDQN', 'algorithm_spec': {'episodic_update': False, 'dueling': False, 'replay_buffer_size': '1e5'
…
