pygame 2.0.1 (SDL 2.0.14, Python 3.7.0)
Hello from the pygame community. https://www.pygame.org/contribute.html
boxing_v1 pettingzoo
Load boxing_v1 environment in type pettingzoo.
Env observation space: Box(0.0, 1.0, (128,), float32) action space: Discrete(18)
random seed: 293
<mars.env.wrappers.mars_wrappers.Dict2TupleWrapper object at 0x7f29e4439630>
DQNBase(
  (net): MLP(
    (body): Sequential(
      (0): Linear(in_features=128, out_features=128, bias=True)
      (1): ReLU()
      (2): Linear(in_features=128, out_features=128, bias=True)
      (3): ReLU()
      (4): Linear(in_features=128, out_features=128, bias=True)
      (5): ReLU()
      (6): Linear(in_features=128, out_features=128, bias=True)
      (7): ReLU()
      (8): Linear(in_features=128, out_features=18, bias=True)
    )
  )
)
DQNBase(
  (net): MLP(
    (body): Sequential(
      (0): Linear(in_features=128, out_features=128, bias=True)
      (1): ReLU()
      (2): Linear(in_features=128, out_features=128, bias=True)
      (3): ReLU()
      (4): Linear(in_features=128, out_features=128, bias=True)
      (5): ReLU()
      (6): Linear(in_features=128, out_features=128, bias=True)
      (7): ReLU()
      (8): Linear(in_features=128, out_features=18, bias=True)
    )
  )
)
Agents No. [1] (index starting from 0) are not learnable.
Load meta strategy:  [array([0.02, 0.02, 0.02, ..., 0.02, 0.02, 0.02]) array([0.021, 0.021, 0.021, ..., 0.021, 0.021, 0.021])]
Load checkpoints (policy family):  [list(['238', '1001', '1391', '1563', '1647', '2029', '2165', '2279', '2364', '2547', '2608', '2710', '2779', '2928', '3206', '3305', '3413', '3496', '3751', '3793', '3869', '3977', '4030', '4082', '4157', '4252', '4399', '4465', '4604', '4708', '4793', '5128', '5202', '5318', '5571', '5726', '5966', '6214', '6551', '6650', '6740', '6883', '6989', '7140', '7232', '7397', '7650', '7807', '7940'])
…
