pygame 2.0.1 (SDL 2.0.14, Python 3.7.0)
Hello from the pygame community. https://www.pygame.org/contribute.html
pong_v2 pettingzoo
Load pong_v2 environment in type pettingzoo.
Env observation space: Box(0.0, 1.0, (128,), float32) action space: Discrete(6)
random seed: 886
<mars.env.wrappers.mars_wrappers.Dict2TupleWrapper object at 0x7f5b0b29e470>
DQNBase(
  (net): MLP(
    (body): Sequential(
      (0): Linear(in_features=128, out_features=128, bias=True)
      (1): ReLU()
      (2): Linear(in_features=128, out_features=128, bias=True)
      (3): ReLU()
      (4): Linear(in_features=128, out_features=128, bias=True)
      (5): ReLU()
      (6): Linear(in_features=128, out_features=128, bias=True)
      (7): ReLU()
      (8): Linear(in_features=128, out_features=6, bias=True)
    )
  )
)
DQNBase(
  (net): MLP(
    (body): Sequential(
      (0): Linear(in_features=128, out_features=128, bias=True)
      (1): ReLU()
      (2): Linear(in_features=128, out_features=128, bias=True)
      (3): ReLU()
      (4): Linear(in_features=128, out_features=128, bias=True)
      (5): ReLU()
      (6): Linear(in_features=128, out_features=128, bias=True)
      (7): ReLU()
      (8): Linear(in_features=128, out_features=6, bias=True)
    )
  )
)
Agents No. [1] (index starting from 0) are not learnable.
Load meta strategy:  [array([0.   , 0.   , 0.145, 0.   , 0.   , 0.   , 0.   , 0.05 , 0.   , 0.157, 0.097, 0.242, 0.309]) array([0.   , 0.   , 0.   , 0.085, 0.212, 0.291, 0.   , 0.   , 0.065, 0.04 , 0.   , 0.305])]
Load checkpoints (policy family):  [list(['21', '424', '539', '1118', '1267', '1494', '2147', '2790', '3257', '3698', '4965', '5569', '7298'])
…
