…
 1000}
RoboSumo-Ant-vs-Ant-v0 robosumo
record video: interval 1000, length 300
{'render.modes': ['human', 'rgb_array'], 'video.frames_per_second': 60}
Load RoboSumo-Ant-vs-Ant-v0 environment in type robosumo.
Env observation space: Box(-inf, inf, (120,), float32) action space: Box(-1.0, 1.0, (8,), float32)
metadata:  [{'render.modes': ['human', 'rgb_array'], 'video.frames_per_second': 60}, {'render.modes': ['human', 'rgb_array'], 'video.frames_per_second': 60}]
random seed: [438, 432]
<SubprocVectorEnv instance>
gaussian_policy 8 Box(-1.0, 1.0, (8,), float32)
[MLP(
  (body): Sequential(
    (0): Linear(in_features=120, out_features=128, bias=True)
    (1): ReLU()
    (2): Linear(in_features=128, out_features=128, bias=True)
    (3): ReLU()
    (4): Linear(in_features=128, out_features=120, bias=True)
  )
), MLP(
  (body): Sequential(
    (0): Linear(in_features=120, out_features=128, bias=True)
    (1): ReLU()
    (2): Linear(in_features=128, out_features=128, bias=True)
    (3): ReLU()
    (4): Linear(in_features=128, out_features=120, bias=True)
  )
)] [MLP(
  (body): Sequential(
    (0): Linear(in_features=120, out_features=128, bias=True)
    (1): Linear(in_features=128, out_features=16, bias=True)
    (2): Tanh()
  )
), MLP(
  (body): Sequential(
    (0): Linear(in_features=120, out_features=128, bias=True)
    (1): Linear(in_features=128, out_features=16, bias=True)
    (2): Tanh()
  )
)] [MLP(
  (body): Sequential(
    (0): Linear(in_features=120, out_features=128, bias=True)
    (1): ReLU()
    (2): Linear(in_features=128, out_features=1, bias=True)
  )
), MLP(
  (body): Sequential(
    (0): Linear(in_features=120, out_features=128, bias=True)
    (1): ReLU()
    (2): Linear(in_features=128, out_features=1, bias=True)
  )
)] MLP(
  (body): Sequential(
    (0): Linear(in_features=240, out_features=128, bias=True)
    (1): ReLU()
    (2): Linear(in_features=128, out_features=1, bias=True)
  )
)
gaussian_policy 8 Box(-1.0, 1.0, (8,), float32)
[MLP(
  (body): Sequential(
    (0): Linear(in_features=120, out_features=128, bias=True)
    (1): ReLU()
    (2): Linear(in_features=128, out_features=128, bias=True)
    (3): ReLU()
    (4): Linear(in_features=128, out_features=120, bias=True)
  )
), MLP(
  (body): Sequential(
    (0): Linear(in_features=120, out_features=128, bias=True)
    (1): ReLU()
    (2): Linear(in_features=128, out_features=128, bias=True)
    (3): ReLU()
    (4): Linear(in_features=128, out_features=120, bias=True)
  )
)] [MLP(
  (body): Sequential(
    (0): Linear(in_features=120, out_features=128, bias=True)
    (1): Linear(in_features=128, out_features=16, bias=True)
    (2): Tanh()
  )
), MLP(
  (body): Sequential(
    (0): Linear(in_features=120, out_features=128, bias=True)
    (1): Linear(in_features=128, out_features=16, bias=True)
    (2): Tanh()
  )
)] [MLP(
  (body): Sequential(
    (0): Linear(in_features=120, out_features=128, bias=True)
    (1): ReLU()
    (2): Linear(in_features=128, out_features=1, bias=True)
  )
), MLP(
  (body): Sequential(
    (0): Linear(in_features=120, out_features=128, bias=True)
    (1): ReLU()
    (2): Linear(in_features=128, out_features=1, bias=True)
  )
)] MLP(
  (body): Sequential(
    (0): Linear(in_features=240, out_features=128, bias=True)
    (1): ReLU()
    (2): Linear(in_features=128, out_features=1, bias=True)
  )
)
gaussian_policy 8 Box(-1.0, 1.0, (8,), float32)
Agents No. [1] (index starting from 0) are not learnable.
Arguments:  {'env_name': 'RoboSumo-Ant-vs-Ant-v0', 'env_type': 'robosumo', 'num_envs': 2, 'ram': True, 'seed': 'random', 'record_video': True, 'against_baseline': False, 'algorithm': 'NashPPO', 'algorithm_spec': {'episodic_update': True, 'dueli
…
